…
           1       0.85      0.97      0.91        40

    accuracy                           0.90        79
   macro avg       0.91      0.90      0.90        79
weighted avg       0.91      0.90      0.90        79

Confusion Matrix
[[32  7]
 [ 1 39]]
Model: "model_1"
_________________________________________________________________
 Layer (type)                Output Shape              Param #   
=================================================================
 input_1 (InputLayer)        [(None, 224, 224, 3)]     0         
                                                                 
 block1_conv1 (Conv2D)       (None, 224, 224, 64)      1792      
                                                                 
 block1_conv2 (Conv2D)       (None, 224, 224, 64)      36928     
                                                                 
 block1_pool (MaxPooling2D)  (None, 112, 112, 64)      0         
                                                                 
 block2_conv1 (Conv2D)       (None, 112, 112, 128)     73856     
                                                                 
 block2_conv2 (Conv2D)       (None, 112, 112, 128)     147584    
                                                                 
 block2_pool (MaxPooling2D)  (None, 56, 56, 128)       0         
                                                                 
 block3_conv1 (Conv2D)       (None, 56, 56, 256)       295168    
                                                                 
 block3_conv2 (Conv2D)       (None, 56, 56, 256)       590080    
                                                                 
 block3_conv3 (Conv2D)       (None, 56, 56, 256)       590080    
                                                                 
 block3_pool (MaxPooling2D)  (None, 28, 28, 256)       0         
                                                                 
 block4_conv1 (Conv2D)       (None, 28, 28, 512)       1180160   
                                                                 
 block4_conv2 (Conv2D)       (None, 28, 28, 512)       2359808   
                                                                 
 block4_conv3 (Conv2D)       (None, 28, 28, 512)       2359808   
                                                                 
 block4_pool (MaxPooling2D)  (None, 14, 14, 512)       0         
                                                                 
 block5_conv1 (Conv2D)       (None, 14, 14, 512)       2359808   
                                                                 
 block5_conv2 (Conv2D)       (None, 14, 14, 512)       2359808   
                                                                 
 block5_conv3 (Conv2D)       (None, 14, 14, 512)       2359808   
                                                                 
 block5_pool (MaxPooling2D)  (None, 7, 7, 512)         0         
                                                                 
 global_average_pooling2d (G  (None, 512)              0         
 lobalAveragePooling2D)                                          
                                                                 
 dense (Dense)               (None, 2048)              1050624   
                                                                 
 dropout (Dropout)           (None, 2048)              0         
                                                                 
 dense_1 (Dense)             (None, 1024)              2098176   
                                                                 
 dropout_1 (Dropout)         (None, 1024)              0         
                                                                 
 dense_2 (Dense)             (None, 512)               524800    
                                                                 
 dropout_2 (Dropout)         (None, 512)               0         
                                                                 
 feature_dense (Dense)       (None, 128)               65664     
                                                                 
=================================================================
Total params: 18,453,952
Trainable params: 3,739,264
Non-trainable params: 14,714,688
_________________________________________________________________

Gaussian Naive Bayes
Accuracy: 0.785
AUC: 0.787
F1 score: 0.780
Recall: 0.787
Precision: 0.819

Clasification report:
…
